deepLearning/tutorials/tutorial1/mnist_fc_model.pt (torch_old, 102622 bytes, 4 tensors)

linear1.weight f4 [32, 784]
000000 5d 85 0b bd fc 87 cc 3c c7 7b 9e bc 98 05 57 bc
       -0.034062732 0.024967186 -0.019346131 -0.013123892
000010 a9 ef 05 3d ca e2 d8 bc 3b 10 02 3d 78 b2 61 bc
       0.03269926 -0.026475329 0.03175376 -0.01377546
000020 80 78 01 3b bc 1d 74 bc 43 b1 0f 3d 06 4a a5 3c
       0.0019755661 -0.014899667 0.03508116 0.020176899
000030 f2 73 e6 3c 52 fe c2 3c c0 8c da 3a 26 ab e8 3c
       0.028131459 0.02380291 0.0016674027 0.028401922
000040 fc f2 fb bc 84 3b 12 bc 00 d8 09 3a ec d9 03 bd
       -0.030755512 -0.008925322 0.0005258322 -0.03219025
000050 50 6b 3f 3b 68 98 d5 3c 2e 30 46 bc dc 91 86 bc
       0.002920825 0.02607365 -0.012096448 -0.016426973
000060 a6 13 59 bc da d2 f9 3c d6 60 e0 3c 32 5b 5d bc
       -0.013249313 0.03049605 0.027389925 -0.013510512
000070 50 53 1c 3b 60 88 f4 3a 0a bd 66 bc 00 69 e9 39
       0.002385337 0.0018656366 -0.014083156 0.00044519454
000080 30 7d 03 bd 9a 9e f6 3c 00 0c e0 bb 80 0a 7f bc
       -0.03210181 0.030104924 -0.006837368 -0.015566468
000090 d3 56 ea bc 00 50 d8 3c 00 c0 8e b9 c3 12 de bc
       -0.028605854 0.026405334 -0.00027227402 -0.027108556
0000a0 a0 d0 1b bc 3c 61 89 bc e4 3f 16 3c 1a 34 9b 3c
       -0.009510189 -0.016769998 0.009170506 0.018945742
0000b0 30 13 71 3c 80 b8 ab 3b 85 6b e9 bc b2 8d 9d 3c
       0.014714047 0.0052405 -0.028493652 0.019232605
0000c0 d0 4b cd 3c a0 0c 8b 3a 7c 31 48 3c 48 9a 85 3c
       0.025060564 0.0010608621 0.012218829 0.016308919
0000d0 f2 a6 50 bc 20 3d 1a bb 7c ae cc 3c 00 52 ac bc
       -0.012735115 -0.0023534968 0.024985544 -0.021035194
0000e0 a0 86 fd 3a 05 84 0a bd 80 20 8f bb 90 5a 44 bb
       0.001934249 -0.03381731 -0.004367888 -0.0029961206
0000f0 ac 33 c6 3c 09 c4 09 3d b0 77 4c bb c6 9f 61 bc
       0.024194561 0.03363422 -0.003119927 -0.013771003
000100 3c 83 2a bc e0 9e cd 3c 50 ec 76 3c e8 b6 4a 3c
       -0.010407265 0.025100172 0.01507099 0.01237271
000110 f6 fd e8 3c 13 dc f4 bc d0 56 5e 3b 0e a5 fb 3c
       0.02844141 -0.029890096 0.0033926256 0.030718353
000120 20 38 9a 3a a4 1b c9 bb 7d 9e 0c 3d 45 94 11 3d
       0.0011765994 -0.006137328 0.034330834 0.03554179
000130 f0 ca e0 bc 53 3c ae bc 98 18 ca bc c4 7b 2e 3c
       -0.027440518 -0.021269 -0.02466993 0.010649625
000140 f0 23 25 3b c5 cb 05 bd 5e b0 94 bc 67 5e 9e bc
       0.0025198422 -0.032665033 -0.018150505 -0.019332124
000150 9e 72 8b bc 7c f0 64 bc 8c 8e 09 bd 0a 0f 81 3c
       -0.017022427 -0.013973352 -0.03358321 0.015754241
000160 37 d7 02 3d aa 0f cb 3c e8 35 0e bd 50 a4 47 3b
       0.031943526 0.024787743 -0.034719378 0.0030462928
000170 e8 45 0c bd 24 87 77 3c 08 e0 c9 3c 97 e3 00 bd
       -0.034246355 0.015107904 0.02464296 -0.031467047
000180 8c 7b 9f bc dc bb e7 bb 00 50 28 39 32 1c dc 3c
       -0.019468091 -0.007071955 0.00016051531 0.026868913
000190 60 8e a4 ba 2a 98 87 3c e6 15 0a bd d2 d9 1a bc
       -0.0012554638 0.01655205 -0.03371229 -0.0094513465
0001a0 0a c1 c0 bc d0 8a c5 3c 80 eb 03 bc 15 91 ef bc
       -0.023529548 0.024114043 -0.008051753 -0.029243985
0001b0 cc 09 9f 3c e4 bf 93 bb 2a c7 8b bc f8 3b c1 3b
       0.019413851 -0.004508959 -0.017062742 0.0058970414
0001c0 7e cb e6 3c 8a 9b be bc 5e 1d 9e 3c 0a d4 2d bc
       0.028173205 -0.023267526 0.019301113 -0.010609636
0001d0 38 c0 b8 3c d8 c4 0a bc 80 69 af bb 52 08 e0 3c
       0.022552595 -0.008469783 -0.0053531528 0.027347717
0001e0 d5 90 c7 bc dc 52 a6 3c 60 8d cb ba d4 65 13 3c
       -0.024361053 0.020303182 -0.0015529804 0.008996446
0001f0 a6 ae 05 bd b0 d0 d3 bb 68 bb b8 bc 7c 8f 80 3c
       -0.03263726 -0.0064640865 -0.0225503 0.015693419
000200 00 af 88 39 13 10 e3 bc 40 3d 0f 3a 51 4f 02 3d
       0.00026070327 -0.027717626 0.0005464144 0.031813923
000210 13 60 d2 bc 81 94 04 3d e0 af 7f bc b2 ab fa 3c
       -0.025680577 0.032368187 -0.015605897 0.030599449
000220 fc 05 b4 3c 16 dd 0f bd ce d6 4e bc 8f 0e 01 bd
       0.02197551 -0.035122953 -0.012624456 -0.031508025
000230 57 91 06 3d 6a 4e e0 bc a0 9a 95 3c 28 81 7f 3c
       0.03285345 -0.02738114 0.018262208 0.015594758
000240 38 4a eb bb f0 65 63 3b 6c f6 d5 3c 3c d1 f5 bc
       -0.0071804784 0.003469821 0.02611848 -0.030006997
000250 13 c0 01 3d 6e 48 e5 3c 90 21 3c 3c 4a bf 28 bc
       0.031677317 0.027988639 0.011482611 -0.010299513
000260 3a 49 f9 bc d0 89 52 bb f0 d7 9c bb 60 22 99 ba
       -0.030430425 -0.00321256 -0.004786484 -0.0011683218
000270 b2 83 61 bc a0 ac 36 bc 66 57 37 bc 1b 77 09 3d
       -0.013764309 -0.011149555 -0.011190271 0.033560853
000280 08 bc c7 bb 3e 3d 84 3c ce 86 94 3c 40 f6 8b bc
       -0.006095413 0.016142484 0.018130686 -0.017085195
000290 00 76 30 3a ca 25 ed 3c 7b ad 09 3d 26 13 3a bc
       0.00067314506 0.028948683 0.03361271 -0.011357104
0002a0 e8 e6 eb 3b 95 ff e7 bc 26 94 f2 3c 1e 3a f9 3c
       0.007199157 -0.028320113 0.029611658 0.03042322
0002b0 28 2f ff bc 80 c4 a7 b9 f4 b1 42 3c f2 9f f8 3c
       -0.031150416 -0.00031999126 0.011883248 0.030349705
0002c0 9f 88 0c bd 00 34 09 b8 bc f6 aa bc b0 0d 66 3c
       -0.03430998 -3.2711774e-05 -0.020869605 0.014041349
0002d0 7f 9e 0a 3d 6e 3a 62 bc aa 24 12 bc f8 6e 5d bc
       0.03384256 -0.013807876 -0.008919874 -0.013515227
0002e0 30 cd eb 3b ee d2 ae 3c fe 23 bf bc c3 f3 f0 bc
       0.007196091 0.021340813 -0.023332592 -0.02941311
0002f0 3c 37 29 bc 20 aa 36 bc 90 e8 de bc 68 93 b9 bc
       -0.01032811 -0.011148959 -0.027210504 -0.022653297
000300 00 e8 71 3b d6 56 fe 3c 22 85 a5 3c 2e 4f 0e bc
       0.0036911964 0.031047266 0.020205084 -0.00868587
000310 4c c8 d5 3c a0 24 e0 3b f2 43 03 bc 50 36 63 3b
       0.026096486 0.0068403035 -0.008011805 0.0034669824
000320 47 4e a2 bc 8e 60 3e bc 65 57 d3 bc 28 a9 f2 bc
       -0.019812716 -0.0116197 -0.025798509 -0.029621676
000330 9a 69 0f bd 72 58 96 3c ac 9b 95 3c 45 e1 84 bc
       -0.03501282 0.01835272 0.018262707 -0.016220698
000340 20 a3 6e 3c 60 e2 ac 3c f8 70 d7 bc d1 c5 e4 bc
       0.014565259 0.021104038 -0.026298985 -0.027926357
000350 f3 11 d4 bc 5c 20 82 bc 2e 25 91 3c 9a c9 bd bc
       -0.025887465 -0.01588457 0.017717924 -0.02316742
000360 ae f0 68 bc 18 8e 75 bc c0 37 05 ba 0e fd 12 bc
       -0.014217539 -0.014987491 -0.0005081855 -0.008971466
000370 20 00 99 ba 06 dd c4 3c 38 a7 80 3b 88 c1 8f 3b
       -0.0011673011 0.024031173 0.003926184 0.0043870844
000380 1c f7 9c 3c c3 38 05 3d d4 7f 7e bc c0 cf 18 3a
       0.0191608 0.032524835 -0.015533406 0.0005829297
000390 d9 74 00 3d 00 02 3e bb c0 7f 98 bb 98 82 7d bc
       0.031361435 -0.0028992891 -0.004653901 -0.0154730305
0003a0 02 a1 eb 3c 70 ae a0 3c c0 0e 43 3a e0 56 22 bb
       0.028763298 0.019614428 0.00074408576 -0.002477102
0003b0 db 16 0a 3d e4 05 67 3c c0 84 76 bc 62 b9 a4 3c
       0.033713203 0.0141005255 -0.0150462985 0.020107929
0003c0 92 1c 02 bd 90 da 3b 3b e8 7b a8 bc 38 80 ea bb
       -0.031765528 0.002866421 -0.020566896 -0.007156398
0003d0 64 ff 41 3c 0a ed 4f bc 78 b2 80 bb 26 8f 5b bc
       0.011840675 -0.012690792 -0.003927525 -0.0134008285
0003e0 ae 35 4d bc fe bd 93 3c 4e 46 e4 bc bc 06 ed bc
       -0.012525005 0.018034931 -0.027865555 -0.028933875
0003f0 18 da 78 bc 55 8e 98 bc c6 e0 43 bc c0 3c 2b bc
       -0.015188716 -0.018622557 -0.011955446 -0.010451496

linear1.bias f4 [32]
000000 70 21 8f 3c 9a 2c 0b bd 00 22 e9 bb 10 4e 3e 3c
       0.017471999 -0.033978082 -0.007114649 0.011615291
000010 c8 fe c3 3c ee b2 02 bc f3 e8 b5 bc f0 b4 d6 3b
       0.0239252 -0.0079772305 -0.022205805 0.006552331
000020 78 d7 a4 3b 03 9f 0d 3d 60 d1 cb 3c b8 76 80 bb
       0.0050305687 0.034575474 0.024880111 -0.0039204024
000030 78 22 94 bb a8 66 e1 3b 98 0a 0d bd 76 f1 d3 3c
       -0.0045207106 0.0068786927 -0.03443393 0.025871973
000040 0e 14 8e 3c 44 72 87 3c 30 56 c5 bc c0 d4 c9 3a
       0.017343547 0.016533978 -0.024088949 0.0015398487
000050 16 90 c9 3c e8 a1 9b 3c 1c f2 75 bc 4a 13 1c bc
       0.024604838 0.018998101 -0.015011337 -0.009526083
000060 f0 76 bb bc e0 0a 3e 3b e0 45 0c bd 86 5f ca 3c
       -0.022883862 0.0028998181 -0.034246325 0.024703752
000070 06 4a 22 bc 20 5f a3 3c 0a 22 30 bc df 80 0f 3d
       -0.009905344 0.01994282 -0.010750303 0.03503501

linear2.weight f4 [10, 32]
000000 8a 8d f3 bd de 76 dc 3d 00 c8 45 bb 18 30 2b 3d
       -0.11892231 0.107648596 -0.0030179024 0.041793913
000010 10 d8 c5 3c 0e 8a f5 bd 1d 47 2d 3e 16 b6 d9 3d
       0.024150878 -0.119892225 0.16921659 0.10630433
000020 32 06 9f 3d 47 7f 16 3e 48 b9 2a bd 3c 87 81 3d
       0.077648535 0.1469699 -0.041680604 0.06324622
000030 49 6f 8c bd cc 39 6c 3d ab 90 06 be f2 2d fd 3d
       -0.068571635 0.057672307 -0.13141124 0.12362279
000040 c2 5f 8d 3d 38 0a 97 bc 20 f2 1f bd 0e c0 fe 3d
       0.0690303 -0.01843749 -0.039049268 0.12438975
000050 a2 37 f0 3d ea 05 2e be d7 98 ba bd c8 69 f8 3c
       0.11729361 -0.16994444 -0.09111183 0.030323878
000060 00 97 8e bb cf 5e 0f 3e c8 c3 05 be 16 2b 02 be
       -0.0043514967 0.1400101 -0.13062966 -0.12711748
000070 5e d8 54 bd e6 cf cc 3d 2e ed c1 3d c9 2f b7 bd
       -0.051964156 0.10000591 0.094690666 -0.08944661
000080 cc 49 58 bd 4f 82 14 3e fb 11 b4 bd 85 31 2c 3e
       -0.052804753 0.14502834 -0.08792492 0.16815765
000090 0c 12 c5 bd 50 e5 a5 bc 77 f2 08 be 6a 99 0a be
       -0.09622583 -0.020250946 -0.13373743 -0.13535085
0000a0 da 50 a2 3d 06 53 c6 3d db e9 1f 3e 3d 54 28 3e
       0.079255775 0.09683804 0.15616553 0.16438384
0000b0 93 90 10 3e a0 3d 87 bd cc 59 22 bd b0 ff 5d 3c
       0.1411765 -0.06603551 -0.03963642 0.01354973
0000c0 5d 1a 11 be 38 f8 2c be 6a c3 da 3d 73 96 0a 3e
       -0.14170213 -0.16891563 0.106818035 0.13533954
0000d0 2c 6b d2 bd 7a 3d 1f be 85 0f 09 3e c8 ec 90 bc
       -0.10274348 -0.15550795 0.13384826 -0.017691031
0000e0 e3 84 15 be 28 68 2d 3d 30 96 c6 3c e0 c7 7a 3c
       -0.14601474 0.04233566 0.024241537 0.015306443
0000f0 6a 0a a0 3d a6 f2 f7 3d 88 fc 34 be 47 b0 2c 3e
       0.07814486 0.121068284 -0.17674458 0.1686412
000100 0a 2c 6c bd 66 0f e4 bd 5c ee 0c 3d eb df e8 bd
       -0.057659186 -0.111357495 0.034407005 -0.11370834
000110 16 33 70 bd b3 21 04 3e c0 97 73 bc 16 6b a1 bd
       -0.05864247 0.1290348 -0.014867723 -0.07881753
000120 d2 0d b3 bd 7e 60 9c 3d c4 4b 43 bd ec 64 0e be
       -0.087428704 0.07635592 -0.047679678 -0.13905686
000130 39 c9 33 3e ea 2f ea 3d c9 8c 1c be 20 42 9b 3c
       0.17557229 0.1143492 -0.1528808 0.01895243
000140 70 47 61 bc 5d 81 29 3e 00 a0 58 bb 00 aa af ba
       -0.013749942 0.16553254 -0.0033054352 -0.0013402104
000150 38 a3 19 3d 65 67 c3 bd 00 8a 71 3b 4a 18 04 be
       0.037509173 -0.09541205 0.0036855936 -0.1289989
000160 41 0c f8 bd ad 36 2d be 18 21 e5 bd 0d 4e b0 bd
       -0.12111712 -0.16915388 -0.11187953 -0.08608637
000170 78 98 c3 3c 7e e9 f4 3d 40 84 14 bd 96 33 ff 3d
       0.023876414 0.119585976 -0.036258936 0.12461011
000180 fd f8 0c 3e 93 89 0a be fb d6 ad bd 40 a8 4e bd
       0.13766856 -0.13529043 -0.0848827 -0.050453424
000190 79 fa 02 3e 97 e6 25 3e 68 12 06 be 50 d2 0c bc
       0.1279086 0.16201244 -0.13092959 -0.008595064
0001a0 0f 56 10 3e 1e e3 be 3d ac 11 0c bd 9a cf 87 3d
       0.14095329 0.09320663 -0.03419654 0.06631394
0001b0 ea 7c cc 3d 36 38 ec bd 1d 79 1b be 7c 96 34 bd
       0.09984763 -0.11534159 -0.1518292 -0.044088826
0001c0 64 bf 02 3d 39 e3 0b be 42 0a f1 3d 4a 0d d4 3d
       0.031920806 -0.13660897 0.11769535 0.10354097
0001d0 7c df 2d bd 50 90 1d be 37 0f 24 be ca 25 ee 3d
       -0.04244946 -0.15387082 -0.16021429 0.116283014
0001e0 f0 d6 21 3d 87 53 25 be 30 fc 75 3c 98 67 8c 3c
       0.03951162 -0.16145144 0.0150137395 0.017139241
0001f0 5c 42 8d 3d 28 1f ab 3c 51 f1 32 be 3d 3b 2c 3e
       0.06897423 0.02088888 -0.17474867 0.16819473
000200 80 1e 46 3c a2 d3 e4 3d fc ba 87 3d cf 70 84 bd
       0.012092233 0.11173178 0.06627461 -0.06466829
000210 5e 2a 72 bd 6e 13 87 3d 44 13 e8 bd 80 5b 0c bd
       -0.059122436 0.06595503 -0.113317996 -0.03426695
000220 c6 4e c8 3d 30 3f aa 3c e6 c6 24 be 82 21 8e 3d
       0.0978065 0.020782083 -0.16091499 0.06939985
000230 1a 2a a3 bd 07 30 08 be c4 dd 93 3d d4 72 b5 bd
       -0.079670146 -0.13299571 0.07220033 -0.08859792
000240 83 84 21 be f1 12 02 3e 84 f2 06 be 1d 08 0d 3e
       -0.15773205 0.12702538 -0.1317845 0.13772626
000250 8d c1 2a be 1c a2 80 3d ea 80 08 be e3 66 09 3e
       -0.16675396 0.0628092 -0.13330427 0.13418154
000260 ac 2c 4b bd 06 2e c5 3d 36 66 10 be 2d 5a 24 3e
       -0.04960315 0.09627919 -0.1410149 0.16050024
000270 06 4d f2 3d 06 28 cf 3d e5 eb b1 bd a8 63 28 3d
       0.11831097 0.10115056 -0.086875714 0.041110665
000280 f8 da bf 3c 3d ae 23 3e 14 51 dc bd b6 2c fc 3d
       0.023419842 0.15984435 -0.10757652 0.123132154
000290 48 b6 be bc 54 b4 76 3d fc e9 f9 bd 0d cf 13 be
       -0.023280278 0.060230568 -0.12202832 -0.14434452
0002a0 28 43 9a bc ac 3b 6e 3d 0a a0 14 be 04 c1 58 3d
       -0.01883085 0.058162376 -0.14514175 0.05291845
0002b0 8e 15 20 be 2a 88 c9 3d 78 04 7c bd 8d 70 1d be
       -0.15633222 0.09840424 -0.0615277 -0.15374966
0002c0 82 fc e4 3d 66 7b 91 3d f0 3f be 3c 5d c2 32 3e
       0.111809745 0.071036145 0.023223847 0.17456956
0002d0 f9 9d f6 bd ba 4c e3 3d 8a 83 8c bd 10 3b 28 bd
       -0.1204185 0.11098619 -0.068610266 -0.04107195
0002e0 8e 89 a1 3d 40 0b 44 bc 66 e2 e8 3d a0 86 c3 bc
       0.078875646 -0.011965573 0.11371307 -0.023867905
0002f0 ea ea 91 bd f9 58 d7 bd 29 3e cc bd 3c 0a 27 3d
       -0.071248844 -0.10515017 -0.099727936 0.040781245
000300 ee 73 c4 3d c8 a4 8a 3c b0 4c fd bd 40 28 1d 3c
       0.09592424 0.016924277 -0.123681426 0.009592116
000310 36 dd c4 3d ef 78 01 3e c6 65 08 be de 47 99 3d
       0.09612505 0.12643789 -0.13320073 0.07484411
000320 d0 dd e5 bd 29 47 23 3e 15 1b 20 3e 76 d7 c8 3d
       -0.11223948 0.15945114 0.15635331 0.09806721
000330 cb f8 e9 bd 28 25 e7 bc 00 c6 f1 ba 00 00 8e 3c
       -0.114244066 -0.02821596 -0.001844585 0.017333984
000340 d8 9f a4 3c 16 f5 ea 3d f0 d6 4f 3d 41 ba 26 3e
       0.02009575 0.11472528 0.05074209 0.16281988
000350 5a 05 7c bd e0 a8 b0 3c 50 4c fa bd c2 8b ee 3d
       -0.06152854 0.0215649 -0.12221587 0.116477504
000360 3d 40 31 be 98 1f e4 3c 60 4c 86 3b 5e d3 d7 bd
       -0.17309661 0.027847096 0.00409846 -0.10538362
000370 cc ce 60 3d 89 d8 cb bd 89 6d f4 bd 5d 79 1d 3e
       0.054884717 -0.0995341 -0.11934955 0.15378328
000380 08 4a 2a 3d 40 a3 b0 bc ec d4 10 be e9 1a 0d 3e
       0.041574508 -0.021562219 -0.14143723 0.13779797
000390 58 05 ca 3c 6b 48 e6 bd f4 cf 34 be 0d d9 24 3e
       0.024660751 -0.112442814 -0.17657453 0.16098423
0003a0 78 0e 9c bc a1 ae 1b 3e c4 94 33 3d 6e d6 97 3d
       -0.019049868 0.15203334 0.043843046 0.07413946
0003b0 b7 85 2a 3e e0 ae ca 3c 66 3b bb bd fc ae 7d 3d
       0.1665257 0.02474159 -0.09142189 0.061934456
0003c0 e5 5a 17 3e fe f0 e8 3d f8 6b 81 3c 30 aa 64 bc
       0.14780767 0.113740906 0.015798554 -0.0139565915
0003d0 20 55 aa bb 1e f1 f9 bd 1c f9 30 3d e0 c3 a9 3b
       -0.005198136 -0.122041926 0.04320632 0.005180821
0003e0 a8 07 c6 bd e2 32 d1 3d 00 ea 30 be 0a d6 17 be
       -0.09669429 0.10214783 -0.17276764 -0.14827743
0003f0 09 5f 19 3e 18 14 db bc 62 2f 2b be 62 4b 59 bd
       0.1497766 -0.02674298 -0.16717294 -0.053050406

linear2.bias f4 [10]
000000 0c 7b 24 be 33 96 b2 bd 80 4a 87 3b 15 ea 2c 3e
       -0.16062564 -0.087200545 0.004128754 0.1688617
000010 e5 c3 04 be 45 18 1c 3e d4 ff 1d 3d 20 5a 22 bc
       -0.12965353 0.15243633 0.038574055 -0.009909183
000020 30 0b 93 3c 72 05 00 be
       0.01794967 -0.12502077
