deepLearning/coursework/cw3/CAE_model.pth (torch_old, 53252 bytes, 32 tensors)

conv1.weight f4 [16, 3, 4, 4]
000000 e9 8f a5 3b 57 75 84 bb fa 5e ec 3b 08 22 24 bb
       0.005052556 -0.0040423083 0.0072134705 -0.0025044698
000010 10 d2 8e ba 00 24 46 ba 29 11 9d bb a8 02 43 ba
       -0.0010896344 -0.0007558465 -0.0047933054 -0.00074390555
000020 ff 11 22 3b fa 4f 92 bb 29 47 1a 3c fa b4 35 3a
       0.0024729965 -0.0044651004 0.00941638 0.00069315697
000030 79 c6 8f ba 3f ce 51 3a 21 a7 8d bb 6a 15 13 bb
       -0.0010969184 0.00080034503 -0.004322902 -0.0022443184
000040 87 90 62 3b 06 58 11 bc ad a7 c3 3b 63 45 6e bb
       0.0034571008 -0.008871084 0.0059709162 -0.0036357276
000050 e5 0b 19 ba b6 25 4b 3b 4c 7b 82 3b 8f 73 9c b9
       -0.0005838259 0.003099782 0.0039819833 -0.00029840737
000060 92 8c a8 3a f6 a4 8f bb f7 32 d4 ba d5 84 a0 ba
       0.0012859276 -0.0043836785 -0.0016189505 -0.0012246618
000070 a4 6e ae ba 34 16 a0 39 83 ff 66 3b 83 1e 6a ba
       -0.001330812 0.0003053412 0.0035247512 -0.0008930938
000080 d7 bf 0f bc a3 ac 63 3c ef b1 2e bc 07 4f ad 3b
       -0.0087737655 0.01389614 -0.01066254 0.005288962
000090 00 8c 05 3b 84 c6 45 bb 76 87 8d 3a f0 de 74 ba
       0.0020377636 -0.003017814 0.0010797817 -0.00093410816
0000a0 72 0d f2 bb 07 17 09 3c bc 65 e1 bb 74 ef 3b 3a
       -0.0073868567 0.008367307 -0.0068785828 0.0007169165
0000b0 30 7f a1 3b 73 60 86 b9 1e 83 6d 3b 0d a1 39 3b
       0.004928492 -0.00025630332 0.0036241482 0.0028324754
0000c0 53 bb a2 3b f9 b5 1d 3c 59 37 84 bb 97 42 c4 3b
       0.0049661784 0.009625905 -0.0040349183 0.0059893834
0000d0 6b 49 8a b8 d1 3f dd bb ec 39 a1 bb f3 92 17 3b
       -6.594028e-05 -0.0067519923 -0.004920235 0.002312836
0000e0 e6 99 03 bc 7f 02 9d ba 3c 51 bb bb c5 2b 0b bc
       -0.008032298 -0.0011978893 -0.005716471 -0.008494322
0000f0 8b dc 56 3c b1 6a 05 3c 97 2c 9f bb fe 15 72 3c
       0.013114105 0.008143113 -0.0048576104 0.014775751
000100 d6 cb 19 bb 4f b4 ae bb 79 69 42 3b 1f cf 6b bb
       -0.0023467443 -0.005331553 0.0029664917 -0.0035981608
000110 04 b4 8a 3a 9c 08 a4 bb 58 e3 42 bb b0 93 9c bb
       0.0010582213 -0.005005909 -0.0029737558 -0.004778348
000120 9f 89 92 3a db c8 14 3b 9a 40 8e bb 9b 57 5f bb
       0.001117993 0.0022702727 -0.004341197 -0.0034079317
000130 0d 1f 47 ba 95 f4 12 3b 13 c2 0e bb dc ea 9a 3b
       -0.00075958745 0.0022423614 -0.0021783158 0.0047277045
000140 db 1a 28 bc c6 da 93 bb 79 c1 1c bc de 0a 52 bc
       -0.010260309 -0.004512164 -0.009567612 -0.012819974
000150 51 bd 18 bc 34 a5 a2 3b f8 2f 86 bb 48 49 83 bb
       -0.00932248 0.0049635414 -0.004095074 -0.0040065385
000160 40 83 6b 3a 6e da 73 b9 ff d6 4a 3b c5 1d 30 3a
       0.00089840963 -0.00023255657 0.0030950902 0.0006718303
000170 ae 91 71 ba c8 1d 08 bc a3 68 56 bb 2f e9 62 bc
       -0.00092151284 -0.008307882 -0.0032716177 -0.013849541
000180 66 b3 4e 3c d3 0a 14 ba d4 a6 2f 3c 15 83 fc b8
       0.012616014 -0.0005647365 0.010720927 -0.00012040712
000190 c9 b1 dc bb 6d 82 5d 3c 9a b4 33 bc 08 e3 e2 3b
       -0.006735061 0.013519865 -0.010968352 0.006924037
0001a0 3e 08 07 3c 89 00 1a bc 24 cf be 3b 08 5d ba bb
       0.008241711 -0.009399542 0.005823033 -0.0056873597
0001b0 0f 0b 0a 3c 55 54 87 3c 10 8a 04 bb 29 12 7a 3c
       0.008425488 0.016519705 -0.0020223893 0.015263119
0001c0 1d 98 1c 3c bd a7 27 3a a2 89 04 3b 74 db 86 bb
       0.009557751 0.00063955394 0.0020223637 -0.0041155163
0001d0 de 83 96 3b 27 f8 5b bb 1b d5 69 bb 82 f8 51 3c
       0.0045933565 -0.0033564658 -0.003568 0.012815597
0001e0 c0 18 25 3b 1a 59 1c 3c 7f d3 0a b9 d2 f6 16 bc
       0.0025191754 0.009542728 -0.00013239494 -0.00921412
0001f0 14 d3 13 3b 85 39 fc 3b 99 10 6b 3a 3b dd 72 3c
       0.0022556232 0.0076972865 0.0008967012 0.014823253
000200 06 1f 17 bc 85 87 14 3c 09 ea 6a bc ab 00 71 3b
       -0.009223705 0.0090655135 -0.014338025 0.003677408
000210 69 49 fd 3b db 8c 24 bb e1 4c 85 3c eb aa 40 bc
       0.0077296984 -0.002510837 0.01627201 -0.0117595
000220 45 c7 d7 bb 48 94 15 3c 0b de cf bb 95 64 9b 3c
       -0.006585034 0.009129591 -0.0063436083 0.01896886
000230 26 0e d3 3b fa e4 eb bb 76 89 c7 3b 58 9a 26 bc
       0.0064408956 -0.007198927 0.0060893847 -0.010168634
000240 1d 00 03 ba 0b 45 21 39 1c 00 33 3b 11 65 c2 ba
       -0.00049972703 0.00015379877 0.0027313298 -0.0014831146
000250 bc 21 e8 3a 65 a6 22 3b a5 2e c3 38 d9 f3 2d bb
       0.0017710249 0.0024818417 9.307013e-05 -0.002654305
000260 47 9d 42 bb 44 85 99 38 a5 52 08 bc 5e 96 d8 39
       -0.0029695795 7.320431e-05 -0.008320485 0.00041310763
000270 87 52 03 3a be 48 cd 3b 3c b7 27 3b 07 42 47 ba
       0.0005009551 0.006264775 0.0025591394 -0.00076010864
000280 d9 2f e2 3b c4 74 90 3b 49 d9 f6 bb 57 39 06 3b
       0.0069026765 0.004408451 -0.0075332266 0.0020480955
000290 8f ad f7 bb e7 ba 00 bc 36 ec b6 3b 95 e0 87 3b
       -0.0075585316 -0.007857061 0.0055823578 0.0041466453
0002a0 ea 76 a4 3b c4 f6 c1 39 5a ed b7 3b c5 8a 0e bc
       0.0050190585 0.00036995683 0.0056130113 -0.008700077
0002b0 c9 70 df bb 83 5e fa 3b ca 5c 28 bc c9 2a 11 3c
       -0.006818865 0.007640661 -0.010276029 0.008860298
0002c0 24 76 fa ba 2a 83 ea bb cf 2a b2 3b 0f f8 15 3c
       -0.0019108695 -0.0071567493 0.005437232 0.00915338
0002d0 45 d6 a4 3b f6 3c bd 3b 02 3d d8 bb a4 19 cd 38
       0.0050304257 0.0057750894 -0.0065990696 9.779938e-05
0002e0 3a 19 b1 bb 91 da 8a bb 24 24 ff ba be 65 ad 3b
       -0.0054046186 -0.004237481 -0.0019465727 0.0052916696
0002f0 1e 1c c9 3b 80 65 83 bc 03 30 05 3c a3 aa 84 bb
       0.006137385 -0.01603961 0.008129123 -0.004048662
000300 ec 71 9d bb c0 d7 60 3a 07 14 ba 3a 5c d3 34 bb
       -0.0048048403 0.0008577071 0.0014196642 -0.00275918
000310 13 a6 93 3b 4a ee 8b bb 7a 52 28 b8 be c0 25 3b
       0.0045058816 -0.0042703496 -4.0131134e-05 0.0025291885
000320 ec b9 dc ba 61 44 82 3b 8e 42 35 ba a9 ce d8 ba
       -0.0016840077 0.0039754366 -0.00069145195 -0.0016541082
000330 f0 0c 72 bb 84 2e 03 3a f9 f5 00 ba 65 ad da 3a
       -0.003693398 0.0005004185 -0.0004919465 0.0016683756
000340 63 88 92 3b 83 b9 e5 bb 20 6a c9 3b e7 ca 64 bb
       0.004471825 -0.00701064 0.0061466843 -0.0034910978
000350 3a 9f 99 bb ae 08 21 3c 26 ec 12 bc f6 2b 54 3b
       -0.0046881707 0.00982873 -0.008967435 0.0032374836
000360 85 da be bb b2 66 a0 3b 69 b3 4c bb 12 e3 bb 3b
       -0.0058243894 0.0048950547 -0.0031234866 0.005733856
000370 a3 9e fc 3b 2b 89 17 bc 0e f0 0d 3c 1a 99 f1 bb
       0.0077093407 -0.009249012 0.0086631905 -0.0073729875
000380 1a 84 23 bb 60 6c 1b 3c 9a 56 18 bc 37 d3 07 3c
       -0.0024950565 0.009486288 -0.009297991 0.008290104
000390 93 1d 07 ba 1f 03 d6 bb 56 0a f5 3b da a4 d3 bb
       -0.0005154248 -0.006531134 0.007478039 -0.006458861
0003a0 b8 cd 04 3c ad 9f d8 bb d1 8a 8e 3b ba cf 1d bb
       0.008105688 -0.0066108317 0.0043500443 -0.0024080114
0003b0 9d 94 ef bb c4 f4 30 3c cd 00 33 bc fb 81 d1 3b
       -0.0073114173 0.010800544 -0.010925484 0.0063936687
0003c0 48 1c 04 3c 02 29 6f 3c 60 c3 80 3c c2 69 f1 3b
       0.008063383 0.014597179 0.015718162 0.0073673436
0003d0 0f 45 85 bc ab b1 77 ba e3 d3 b6 bb 07 9d 95 bc
       -0.016268281 -0.0009448777 -0.005579458 -0.018263353
0003e0 82 39 ad bc e3 a6 98 ba 5f 69 04 bc 74 57 5e bc
       -0.021145586 -0.0011646416 -0.008081763 -0.013570655
0003f0 f5 26 ff 3a 64 15 8d 3c 65 0c c2 3b 7f 43 3d 3c
       0.0019466566 0.017222114 0.0059218877 0.011551737

conv1.bias f4 [16]
000000 ad 72 8c 3e 52 8a 8c 3d 6b 20 cb 3d 59 52 26 3e
       0.2743124 0.0686232 0.099182926 0.1624235
000010 b0 02 90 3e 72 50 0b 3a 3f 67 b2 bd 78 ae ef 3c
       0.2812705 0.00053144165 -0.08711099 0.029257998
000020 cd 7d 37 3c f5 49 43 bd 02 50 5c ba 08 70 74 3c
       0.011199427 -0.047677953 -0.0008404256 0.014919288
000030 4b 91 bf 3d 6b 44 84 3d 00 11 84 3c 80 ea 26 3d
       0.09353884 0.06458362 0.016121387 0.04075098

batchNormal1.weight f4 [16]
000000 97 2d 46 3f c8 c8 b2 3e 18 f8 ba 3d 49 3f 72 3f
       0.77413315 0.3491881 0.091293514 0.94627815
000010 c6 f9 d0 3e ef da 3d 3f ab 8a 47 3f fd dd 52 3f
       0.40815562 0.7416219 0.77945966 0.8236998
000020 e4 c9 fa 3e be 55 87 3e f8 65 56 3e b6 ca b4 3e
       0.48982155 0.26432604 0.20937335 0.35310906
000030 f0 c3 a7 3e a4 7c 69 3e b7 c5 7b 3f 38 6e f3 3d
       0.32766676 0.22801453 0.98348564 0.11886257

batchNormal1.bias f4 [16]
000000 00 00 00 00 00 00 00 00 00 00 00 00 00 00 00 00
       0.0 0.0 0.0 0.0
000010 00 00 00 00 00 00 00 00 00 00 00 00 00 00 00 00
       0.0 0.0 0.0 0.0
000020 00 00 00 00 00 00 00 00 00 00 00 00 00 00 00 00
       0.0 0.0 0.0 0.0
000030 00 00 00 00 00 00 00 00 00 00 00 00 00 00 00 00
       0.0 0.0 0.0 0.0

batchNormal1.running_mean f4 [16]
000000 00 00 00 00 00 00 00 00 00 00 00 00 00 00 00 00
       0.0 0.0 0.0 0.0
000010 00 00 00 00 00 00 00 00 00 00 00 00 00 00 00 00
       0.0 0.0 0.0 0.0
000020 00 00 00 00 00 00 00 00 00 00 00 00 00 00 00 00
       0.0 0.0 0.0 0.0
000030 00 00 00 00 00 00 00 00 00 00 00 00 00 00 00 00
       0.0 0.0 0.0 0.0

batchNormal1.running_var f4 [16]
000000 00 00 80 3f 00 00 80 3f 00 00 80 3f 00 00 80 3f
       1.0 1.0 1.0 1.0
000010 00 00 80 3f 00 00 80 3f 00 00 80 3f 00 00 80 3f
       1.0 1.0 1.0 1.0
000020 00 00 80 3f 00 00 80 3f 00 00 80 3f 00 00 80 3f
       1.0 1.0 1.0 1.0
000030 00 00 80 3f 00 00 80 3f 00 00 80 3f 00 00 80 3f
       1.0 1.0 1.0 1.0

conv2.weight f4 [8, 16, 6, 6]
000000 0a 17 d1 3a b9 42 b9 bc 7f f5 6a bc 9c 1e e2 bb
       0.0015952301 -0.022614824 -0.014340757 -0.0069006216
000010 65 1c a0 bc 96 5b 76 bc f9 3b f5 3c 53 38 44 bc
       -0.01954479 -0.015036484 0.029935824 -0.011976319
000020 38 8d f0 3a 15 a0 9a 3b 33 82 06 39 2d 64 1c bd
       0.0018352633 0.0047187903 0.00012827739 -0.038181473
000030 9c 0a e9 3c 9d f6 8a bc de 21 80 bc 04 b7 c0 bb
       0.028447442 -0.016963298 -0.01564115 -0.005881192
000040 88 af df bb e9 3e d2 bc af d9 f0 3c 9e 80 21 bc
       -0.006826345 -0.025664764 0.029400675 -0.009857325
000050 4b fb a7 3b 23 03 db bb 49 ea 1f 3c b6 f7 88 bc
       0.005126392 -0.0066837235 0.009760448 -0.01671968
000060 e9 8f aa 3c 37 f5 f2 bc 6b 02 1b bd 0c 5a e0 bc
       0.020820575 -0.029657943 -0.037844103 -0.027386688
000070 2f 73 a7 bc 00 9f b8 bc 60 7c 9b 3c 30 02 20 3d
       -0.020440666 -0.022536755 0.018980205 0.039064586
000080 50 e4 00 3d 0a b3 01 3d 70 36 d7 3c 3d 4c e7 3b
       0.031467736 0.031664886 0.026271075 0.007058649
000090 6f b7 86 bc a9 76 b5 bc bf 8c 48 bc 15 71 c1 3a
       -0.01644489 -0.022151308 -0.012240588 0.0014758433
0000a0 2e d7 a1 3c 1a 60 e4 bb cb 3e e2 bb a0 ba 3f bc
       0.019755926 -0.006969464 -0.006904458 -0.01170221
0000b0 4c 07 ae bb b4 d5 ef ba 63 ac 3a bc 49 40 bd bc
       -0.0053109284 -0.0018297941 -0.011393639 -0.023101943
0000c0 d3 b5 63 3b f8 64 63 3a d9 97 3e bc a9 89 43 bc
       0.0034745827 0.00086744083 -0.011632883 -0.011934676
0000d0 f4 5c 10 bc 4a 39 9d bb b9 13 69 3c e5 eb 28 3b
       -0.008811224 -0.004798089 0.014225894 0.002577537
0000e0 b7 ae 34 bc 4c 28 9d bc 33 9b b8 bb f6 e4 7e 3c
       -0.011027983 -0.019184254 -0.0056337356 0.015557518
0000f0 dd 0e 37 3c cd 60 aa 3b d3 43 11 bc 6a e8 51 bc
       0.011172977 0.005199528 -0.008866268 -0.0128117595
000100 ad f3 91 38 87 6d fb 3b 63 22 bf ba f7 08 60 39
       6.959527e-05 0.007672969 -0.0014582392 0.00021365644
000110 99 b2 ea ba af ce 4c 3a 75 2f a2 3b 00 ac 2c bc
       -0.001790601 0.00078127807 0.004949505 -0.010539055
000120 95 f6 4f 39 86 62 88 3c ad 2b 1c 3c 93 f5 6e bb
       0.00019832917 0.016648542 0.0095318975 -0.0036462292
000130 b6 52 99 bc c5 da 30 bd 46 97 79 3c dd 4f 88 3c
       -0.018716197 -0.043177385 0.01523382 0.016639644
000140 db 76 4c 3c 5b 80 36 3c f8 d5 9c 3b c1 07 20 3c
       0.012479509 0.011139001 0.0047862493 0.009767474
000150 0c 73 d6 39 14 8a 32 3b 86 4a 75 3c 15 1e a2 3c
       0.00040902977 0.0027242946 0.014971381 0.019789735
000160 d3 0c 20 3c 5c 18 01 bc 39 68 8e bc 3e e5 b8 bb
       0.0097686825 -0.007879343 -0.017383682 -0.005642562
000170 35 cd 4b 3c ed 72 bd 3c 17 02 98 3a d8 da 03 bd
       0.012439062 0.02312609 0.0011597303 -0.032191128
000180 5f 32 66 bc 4d 9c e7 bb ed f7 4f 3c aa 27 3e 3c
       -0.014050095 -0.007068193 0.012693387 0.011606136
000190 0e 41 f4 b7 01 91 5b bb 1a 74 a6 ba 7d d6 3e 3c
       -2.911736e-05 -0.0033503177 -0.0012699396 0.011647818
0001a0 7f 9d 98 3c 5d f9 78 3b ef d1 96 bb 46 9d 4f 3c
       0.018629787 0.003799043 -0.0046026628 0.012671774
0001b0 b3 91 48 3c c3 c4 a1 bc 14 21 8d bc a1 8c 87 bc
       0.012241769 -0.019747144 -0.017227687 -0.01654655
0001c0 d2 5b 9c bb 3b 9b 9b bc 7f 04 02 3d 0e 0e 1c 3b
       -0.004771688 -0.018994918 0.03174257 0.0023812088
0001d0 fa f3 5c bb a0 47 13 bc 55 df 4c 3c 1f ac 8a bc
       -0.0033714757 -0.008989245 0.012504418 -0.016927777
0001e0 86 9a de 3c fc 2b 63 bb e2 51 d5 bb 25 81 41 bc
       0.027173292 -0.0034663668 -0.0065100053 -0.011810576
0001f0 4d ca 59 bb 59 fc a1 bc 50 c2 c4 3c 0b ac c1 3b
       -0.0033232153 -0.019773649 0.024018437 0.0059104017
000200 02 21 0e 3a 89 32 a2 bb 3d 67 1d bc a3 ac 79 bc
       0.00054217887 -0.004949872 -0.009607133 -0.015238914
000210 c1 57 91 3c 51 2f 69 bc e8 7a 64 bc 5f b3 34 bc
       0.01774204 -0.0142324725 -0.013945319 -0.0110290935
000220 19 eb 24 bc a3 60 80 bc 64 33 50 3c 0c 89 ab 3c
       -0.010065817 -0.01567108 0.012707565 0.020939372
000230 5b 9f a2 3c 7d 67 ba 3c 88 1d ff 3c 80 08 89 3c
       0.019851377 0.022754425 0.031142011 0.016727686
000240 2d e3 53 3c bf 3c fd bc 4a a0 b6 bc f6 ee 27 bc
       0.012932581 -0.030912755 -0.022293229 -0.010249844
000250 97 57 35 bc b9 64 9a bc 6d a3 23 3d 7c a4 3f bd
       -0.011068246 -0.018846856 0.039950777 -0.046787724
000260 89 62 81 bb a7 7e 9f bc 39 f2 09 3c e3 42 1b bd
       -0.003948514 -0.019469572 0.008419567 -0.037905585
000270 75 f4 26 3d 58 cb 11 bd 00 55 56 3b be bc e8 bb
       0.040760476 -0.035594314 0.0032704473 -0.007102578
000280 3c c2 51 bc 9c eb b3 bc ec 01 32 3d 91 86 5d bb
       -0.012802657 -0.021962933 0.043458864 -0.0033802132
000290 a3 ec f9 3a c9 66 2e 3b 1e a7 35 bc 8e 5e 0a bc
       0.0019067716 0.0026611558 -0.011087207 -0.008445395
0002a0 7f 4e 32 3d f6 3e 66 bd 09 65 ec bc 71 aa 2f bd
       0.04353189 -0.056212388 -0.028856771 -0.042887155
0002b0 7b 61 0d bd aa 65 cd bc d8 f2 16 3d e5 69 37 3d
       -0.034516793 -0.025072891 0.036852688 0.044778723
0002c0 0e e1 2a 3d 2d c1 34 3d 8d 31 54 3d 36 c0 c8 3c
       0.041718535 0.04412954 0.051805068 0.024505716
0002d0 e0 6f ca bb a4 93 6a 3b 40 cb ae 3b dd dd 99 bb
       -0.0061778873 0.0035793567 0.005334288 -0.0046956376
0002e0 17 93 ed bc a6 98 e6 bc fc 8d a3 bb 9a f4 af bb
       -0.029000802 -0.02814896 -0.004991291 -0.005369735
0002f0 39 f8 5f bb 8e 09 1a bb 96 b2 da bb 8a ea 01 bd
       -0.0034175052 -0.002350423 -0.006674121 -0.031717815
000300 65 f5 07 ba 95 04 c9 3a 59 ae c5 3a 21 a2 81 3b
       -0.0005186408 0.0015336449 0.0015081867 0.003956095
000310 63 37 a0 b9 72 6e 18 bc 8d 10 d2 3a 3d 16 98 bb
       -0.00030558844 -0.009303676 0.0016026661 -0.004641323
000320 8c 04 8d 3a b2 c8 62 3b 55 0d de 3a e7 53 2f 3c
       0.0010758801 0.0034604487 0.0016941229 0.010701156
000330 0e f4 55 3b c0 e3 04 3b 27 de b8 3b 36 7b af 3b
       0.0032646689 0.002027735 0.005641717 0.005355264
000340 7e 17 60 3b 10 89 0f bc 20 34 7f 3b a1 57 09 3b
       0.003419369 -0.008760706 0.003894098 0.0020956772
000350 7b 2b 8c 3a da 3d 9a 38 e2 91 20 bc e8 bb a1 bc
       0.001069411 7.354813e-05 -0.009800406 -0.019742921
000360 53 2f 41 38 a6 68 a4 bc 9a c9 07 bc 21 ba 26 3b
       4.605886e-05 -0.020069432 -0.008287812 0.0025440531
000370 df d4 d9 3c 1e b0 65 3c b3 ee 2b bc 8c 21 81 bc
       0.026590763 0.01401904 -0.010493922 -0.015763067
000380 e9 a6 70 bc 8e a2 2e bc 5f 4b fc ba 37 76 d7 bc
       -0.014688232 -0.010658873 -0.0019248537 -0.026301486
000390 03 e6 50 3b e5 18 9b 3b e1 23 57 bc 04 d2 f7 bb
       0.003187538 0.0047331923 -0.013131113 -0.0075628776
0003a0 60 97 e6 bb 39 12 fb bb 00 9d 42 3c ef ce cf 3a
       -0.0070370883 -0.0076620844 0.011878252 0.0015854518
0003b0 00 87 19 bc f8 6b 9d bc dc ac 18 bb d9 f8 b7 3c
       -0.009370565 -0.019216523 -0.0023296392 0.022457527
0003c0 bb 0c 57 3c 37 a8 b1 3b c2 85 b8 bb 46 fe 01 bc
       0.013125594 0.005421664 -0.0056311795 -0.007934159
0003d0 ca 71 f7 b9 70 94 a7 bb 79 c9 07 3b eb f5 1c bc
       -0.0004719629 -0.0051141307 0.0020719452 -0.009580116
0003e0 c1 89 65 bc 83 dc d4 ba 1a 9e 47 3c 18 6e a7 bc
       -0.014009894 -0.0016240034 0.01218369 -0.020438239
0003f0 4e 2a 5c 3c 97 0c 59 3c 01 2e 6c 39 b9 fb 9a bb
       0.013437821 0.013247631 0.00022523852 -0.0047297147

conv2.bias f4 [8]
000000 5e ea e6 bc d5 17 0d ba b3 25 0e 3c af 76 ec 3c
       -0.028187927 -0.00053822744 0.00867598 0.028865186
000010 a0 8c 9f 3a bd df 8c 3b 22 0c 0c bd 04 b0 1e bc
       0.0012172647 0.0042991326 -0.03419126 -0.00968552

batchNormal2.weight f4 [8]
000000 e0 5d 1b 3f ee 1b a9 3e b5 0e f1 3e 26 36 fe 3e
       0.60690117 0.3302912 0.47081533 0.49650687
000010 8d 63 dc 3e 33 b2 e7 3e f8 d9 b5 3e 92 ec 3d 3e
       0.430447 0.45253143 0.3551786 0.18547276

batchNormal2.bias f4 [8]
000000 c4 a5 31 3c 53 22 b2 3d 8e 5a 36 3d e8 c5 9e 3c
       0.010842744 0.08697953 0.044519953 0.019381478
000010 7e 8a 01 3d 07 21 a6 3c 6d d4 60 3d 24 db 87 3b
       0.031626217 0.02027942 0.054890085 0.0041459966

batchNormal2.running_mean f4 [8]
000000 c3 37 da bd f4 9d 98 bc 37 d0 18 bd 48 41 25 3b
       -0.10655167 -0.018630005 -0.037307944 0.0025215913
000010 47 cf 8a bd db 9b 33 bd 07 d0 de bd 79 da b6 bb
       -0.06777816 -0.043849807 -0.10879522 -0.005580243

batchNormal2.running_var f4 [8]
000000 7d bc 3f 3c 4b 81 5c 3b 79 56 19 3c d5 9c 0c 3c
       0.011702654 0.00336464 0.009358996 0.008582314
000010 ee 60 c4 3b f2 29 66 3b 25 0a 3e 3b 6c 28 e9 3a
       0.005993 0.0035120216 0.0028997746 0.0017788536

fc.weight f4 [32, 32]
000000 94 31 8a bc a7 da 92 bd 67 fb 15 bd b0 87 5c bc
       -0.016869344 -0.07170611 -0.03661671 -0.013460085
000010 cb ea 75 bb d3 ee 64 3c d3 c1 c7 bc 25 4c e1 bb
       -0.003752398 0.013972956 -0.024384415 -0.006875532
000020 16 83 c2 3c c2 3d 80 bd f1 23 89 3d 2a 3e fb 3c
       0.023744147 -0.06261779 0.066963084 0.03066929
000030 3f 5c 8f 3c 77 10 2c bd 49 16 d7 39 47 71 02 3d
       0.017500041 -0.04200789 0.000410246 0.03184631
000040 57 18 c1 bb cf 51 70 3c 83 e3 e4 bc 05 78 5e 3c
       -0.005892794 0.014667942 -0.027940517 0.01357842
000050 88 f0 db 3d a9 d8 50 bd a0 98 d2 3c 20 e4 36 3d
       0.10739237 -0.050987873 0.025707543 0.04465115
000060 19 70 af bd cc f9 1b 3d 39 03 a2 3d ad 8a 90 bb
       -0.08566303 0.03808002 0.07910771 -0.0044110627
000070 ca 53 f8 3c 39 45 cd bc 9c 68 cf bb ad d3 d1 bc
       0.030313391 -0.025057422 -0.006329609 -0.02561363
000080 b5 20 a9 bd 79 b7 c5 bd 03 56 29 bc da 4f 9e 3d
       -0.082581915 -0.09654135 -0.010335448 0.07730074
000090 3b e2 4b 3b 1d ed 8a 3c dd 4c 84 3c 36 11 11 3d
       0.0031110186 0.016958768 0.016149933 0.035416804
0000a0 ab d2 00 3d 1e 3a cd bd b3 74 5d bd 15 86 a5 3c
       0.03145091 -0.100208506 -0.05406637 0.020205537
0000b0 ec a0 6b bc 37 3b d3 bc e4 07 96 3c a7 b0 a2 bb
       -0.0143816285 -0.025785072 0.01831431 -0.0049649063
0000c0 ab 4b 69 bc 31 5e 84 3c 19 16 c9 3c b5 be 08 bd
       -0.014239232 0.016158195 0.02454667 -0.033384997
0000d0 e4 4b b8 3c ad 54 bd 3d 17 6c 82 bc 7f 9c 24 3d
       0.022497125 0.09244666 -0.015920682 0.04018831
0000e0 4a 9b 72 bc 42 3a 37 bd 95 99 1c bd 0d 46 ff 3c
       -0.014807532 -0.044733293 -0.038232405 0.031161333
0000f0 59 ec 2f bd f0 14 4c bb cc 4b bb bc 99 9d 5a bc
       -0.042950008 -0.003114041 -0.022863291 -0.013343238
000100 c2 66 97 bd 06 e8 92 ba 47 9a b1 3b c3 8d 5b 3d
       -0.07392646 -0.0011208064 0.0054200026 0.05360199
000110 5a 94 b9 3c 94 10 09 3b ce 5e be bd 72 9f 0d bc
       0.022653747 0.0020914422 -0.09295426 -0.008643972
000120 fc 16 dc 3a 02 16 d8 bb e6 21 5b 3d 8f 95 48 bd
       0.0016791518 -0.0065944204 0.053499125 -0.048970755
000130 70 59 63 3c 0a ac 58 3d 99 ae 92 bb 1c 81 56 bc
       0.013876304 0.052898444 -0.00447638 -0.0130923055
000140 86 08 5b 3a 65 c9 61 bb f2 71 18 bc db 08 aa 3b
       0.0008355457 -0.0034452316 -0.00930451 0.005189044
000150 49 0c 6d bb 29 f6 59 bd a4 cb e4 3c 2f 4f cb bc
       -0.0036170653 -0.053213272 0.027929135 -0.024818031
000160 11 47 cf 3d 6c 9b 88 bc 82 36 8b bd 7b c3 fa bc
       0.10120977 -0.016675673 -0.06797506 -0.03061079
000170 a4 87 7a bd 23 65 c5 3c a4 71 78 bd ea d5 ab 3c
       -0.061164513 0.024096077 -0.06065525 0.020976026
000180 35 a4 64 bd ec 14 70 3d 4c 26 d9 3c 6a e5 ae bd
       -0.055820663 0.058613703 0.02650752 -0.08539851
000190 e2 13 14 bd f4 92 8c 3c a6 7b d2 3b 02 3c 34 bd
       -0.036151774 0.017159916 0.0064234314 -0.04400254
0001a0 53 03 fc 3c 44 fa a3 bd 1c 47 f9 3b 06 e4 fb b9
       0.030763304 -0.08006719 0.007607354 -0.0004804434
0001b0 19 bf 91 bc ea 67 ca 3c aa e4 c1 3c 0b 05 e3 bb
       -0.017791318 0.024707753 0.023668606 -0.0069280914
0001c0 e4 c0 45 bd d0 b0 df bc 99 3c fa bc 81 ec df bd
       -0.048279658 -0.02730599 -0.030546473 -0.109337814
0001d0 35 31 01 3d 49 cb dc 3a 90 95 3f bb 05 05 5f 3d
       0.031541068 0.0016845252 -0.0029233433 0.054448146
0001e0 b2 8f 9d 3d e1 39 91 3d 9a 36 95 3b 31 46 66 3b
       0.07693423 0.07091118 0.004553628 0.0035137052
0001f0 41 04 a3 bc 92 56 03 3b 5a a0 90 bc b3 df 73 bc
       -0.01989949 0.0020040614 -0.017654587 -0.014884877
000200 b8 b3 86 bc 91 d6 88 bd 2f a8 5e bd 2c 1f cb 3c
       -0.016443118 -0.0668155 -0.05435961 0.024795137
000210 cd d9 82 3d 8e 0e 21 bc 7a a2 87 3c 76 20 f8 bc
       0.063891985 -0.00983013 0.016556967 -0.030288916
000220 18 e2 00 3e 6c a9 42 bd 4f f9 c7 bd e0 c7 37 3d
       0.12586248 -0.047524855 -0.09764349 0.04486835
000230 8f 09 62 3d b4 8a 63 bc 79 12 85 bc c0 ba d8 bc
       0.055184897 -0.01388805 -0.01624416 -0.026456237
000240 4c bc de bc 04 2a d9 bb e3 e7 87 bd eb 40 50 3c
       -0.027189396 -0.006627323 -0.06636026 0.01271079
000250 7c 22 e6 3c e5 38 6a 3c 77 52 69 3d 22 ad 32 3d
       0.028092615 0.014295791 0.05696341 0.043622144
000260 20 02 5b 3c 6c 36 14 3d 62 ba aa 3c f2 df 87 3c
       0.013367206 0.036184713 0.020840827 0.016586278
000270 29 30 4d 3d 96 fa 21 3d d6 5c 3e 3d a9 db 1a 3d
       0.050094757 0.039545618 0.046475254 0.03780714
000280 cc 0f 82 ba 27 66 00 bb 1b 14 66 3c 35 09 69 bd
       -0.0009922921 -0.0019592138 0.014042879 -0.056893546
000290 e0 e3 69 3c c2 ae 72 3d 14 d4 e6 3c 42 37 61 3d
       0.014275521 0.059248693 0.028177299 0.05498434
0002a0 02 f9 2f bc 3f d4 14 bd 90 6b 44 bd e7 21 32 bd
       -0.01074052 -0.036335226 -0.047954142 -0.043489363
0002b0 f7 55 97 bd 95 ac 1f 3b 42 f2 11 3c e2 07 87 bd
       -0.07389443 0.0024364342 0.008907856 -0.065933004
0002c0 a6 0c 7c 3b fb f3 c1 bc b7 0f e4 bc 13 b7 d9 3b
       0.0038459687 -0.02367591 -0.027839525 0.0066441386
0002d0 5d 29 6e bc 31 e2 02 3c 97 da 84 3d 79 41 3a bb
       -0.014536229 0.007988499 0.06487005 -0.0028420372
0002e0 9d 80 51 3c ed 46 a7 3c d3 2f 9e bc bc bb 4d bd
       0.012787011 0.020419562 -0.019309914 -0.050227866
0002f0 b3 1d c2 3c b1 2a 40 3c 93 c7 1f 3d 00 4c 00 bc
       0.023695802 0.011728928 0.03900869 -0.00783062
000300 cb 43 d6 3c 24 9b 45 3d e9 03 f6 bb 5e 9e 84 bc
       0.026155373 0.048243657 -0.0075077903 -0.016188797
000310 d5 a0 e9 bc 39 65 39 3d b3 74 ff 3d f2 c9 40 bc
       -0.028519074 0.04526255 0.124734305 -0.0117668975
000320 ac 9c af 3c df e7 24 bd 34 3e 83 3d 8a fc d9 bc
       0.021437012 -0.040260192 0.06408349 -0.026609678
000330 48 78 f3 bc 9f 98 b7 3c 40 dd 9b 3d f8 cf bf 3c
       -0.02972044 0.022411643 0.076105595 0.023414597
000340 3e 09 98 3d 36 14 32 3d ea d7 ce bc d7 2d c3 bc
       0.07423638 0.043476306 -0.02524944 -0.02382557
000350 25 46 9c bc 1c af 71 3d 4c 7f 06 bc 12 8e a6 bd
       -0.019076416 0.059004888 -0.008209061 -0.081325665
000360 16 d7 8b bc 70 9b b4 bb 3b 81 07 3c fd cd a8 bc
       -0.017070334 -0.0055116937 0.008270557 -0.020606035
000370 36 ba 23 bd 28 42 82 3d bf 96 19 bd 5b 0c 7f 3d
       -0.039972506 0.063602746 -0.03749728 0.062267642
000380 39 f4 a7 bd 89 61 91 bd 91 91 0f bd 9f 70 aa 3c
       -0.08200879 -0.070986815 -0.035050932 0.020805655
000390 da 64 00 3d bf 00 17 bc b3 cd b8 bb c6 42 0b bd
       0.03134618 -0.0092164865 -0.0056397556 -0.033999227
0003a0 30 81 70 bd 6a 72 53 b9 a3 29 91 bd 71 ea 55 3c
       -0.058716953 -0.0002016515 -0.0708802 0.0130563835
0003b0 2f 27 71 3d b9 3c b9 bc 4f f3 88 3c 11 75 96 3d
       0.05887526 -0.022611963 0.016717581 0.073465474
0003c0 1e e8 e2 3c 4a 37 06 be 9f 9c 58 bc 32 0f 3b bd
       0.027698573 -0.13107029 -0.013220935 -0.04566879
0003d0 f6 65 30 3d 02 fa f7 3c 73 39 99 3c de 46 84 3d
       0.043065988 0.03027058 0.018704152 0.06458829
0003e0 a3 07 b2 3c d1 7a a5 bd dd d1 93 bc 73 b5 c9 3c
       0.021732157 -0.08080066 -0.018044407 0.024622655
0003f0 e1 bb 71 3c 51 57 fb bc 00 c4 92 ba 78 54 1a bc
       0.0147542665 -0.030681284 -0.0011197329 -0.009419553

fc.bias f4 [32]
000000 e5 42 6b bd de 19 49 bd 26 49 ed 3c d7 bb 21 bd
       -0.057436842 -0.049096934 0.028965544 -0.03948578
000010 0f 1f a5 bd 9b 3d 2a 3d b4 8a a0 bd 24 27 ce 3d
       -0.080625646 0.041562658 -0.078389555 0.10066059
000020 55 b6 96 3d 24 5a 8c 3c 48 c2 d6 3c 14 09 d3 3c
       0.07358996 0.017132826 0.026215687 0.025761165
000030 c0 94 9a bd 44 06 7e 3d 28 50 17 bd df 95 3c bd
       -0.07547903 0.062017694 -0.036941677 -0.046041366
000040 9d 1d 12 bd 71 55 5f bc 79 91 99 3d 38 38 9d bd
       -0.035672773 -0.013631211 0.0749845 -0.076767385
000050 19 8b b0 bc 8f 68 0a 3d c5 72 7f 3c 67 fb 75 bd
       -0.021550702 0.03379112 0.015591328 -0.06005421
000060 b6 cb de 3c f6 b5 2f bd 6f af f3 3d 2b 6d 41 3d
       0.027196746 -0.04289814 0.11898696 0.04722325
000070 e4 0f 49 3d ca 60 f8 3b 6c 63 17 3d 95 d1 9f bd
       0.04908742 0.0075798975 0.03696005 -0.078036465

deconv1.weight f4 [8, 16, 3, 3]
000000 5a 2f 74 bc bf ae 22 bd b1 e3 d2 ba 1a c6 fc 2d
       -0.014903868 -0.039717432 -0.0016089586 2.8737058e-11
000010 a5 3d 22 36 67 ff 10 ba 6f 91 03 3d 49 b1 1c 3d
       2.4175763e-06 -0.0005531222 0.03212112 0.03825501
000020 70 cb cc 31 93 54 6c bb 2b b5 25 bb 1b 27 dd 3b
       5.9603096e-09 -0.0036061152 -0.0025284986 0.0067490465
000030 e8 a6 1f bd 25 53 77 bc c9 9b ff 3c 75 ae 91 3b
       -0.038977534 -0.015095507 0.031202214 0.0044458457
000040 aa 68 f5 3c 0a 9b cf 3c 94 b4 9d 3a 04 7d 20 ba
       0.029957134 0.025342483 0.0012031966 -0.00061221444
000050 c4 7f f5 39 c8 90 02 3b df f1 93 3b 6b a5 6e 3b
       0.00046825234 0.0019922722 0.0045149173 0.0036414515
000060 23 2b f4 3a 85 c3 6c 3b c7 07 6e 39 e7 22 55 3c
       0.0018628578 0.003612728 0.00022700346 0.01300881
000070 f2 59 61 bc 41 34 fd bb 0b b2 79 3c 0d bc 93 bc
       -0.013754355 -0.0077271764 0.015240203 -0.018034006
000080 ae 1b c2 bc aa fb 4f bc 28 51 f2 3b c2 42 51 bd
       -0.02369484 -0.012694279 0.0073949285 -0.051089056
000090 f2 57 83 3c 1b 4f fe 3a 69 be cb bc a2 86 0b bc
       0.016033147 0.0019402237 -0.024871068 -0.008515986
0000a0 2e 98 34 3a 89 e6 26 3c a2 d8 1d 3c b3 45 9d 3a
       0.00068891316 0.0101868 0.009634169 0.0011998921
0000b0 57 7f 14 3c 94 51 29 3d ef d0 aa 3b d9 e2 e5 bb
       0.009063563 0.041337565 0.005212895 -0.0070155677
0000c0 a9 07 ab 3a 36 73 fe 3c 8a e0 7a 3c dc b3 eb 3b
       0.0013048548 0.031060796 0.015312323 0.007193072
0000d0 9f d8 1b 3c b1 6b 2f b9 51 3e d1 3c a0 29 83 b2
       0.009512096 -0.00016729419 0.02554241 -1.5269336e-08
0000e0 37 5b 67 bd 9c 77 0b 3d 81 df fe bb 19 08 04 bd
       -0.056483474 0.034049615 -0.0077781086 -0.032234285
0000f0 f0 13 05 38 d9 79 05 b8 57 b6 05 3d 07 cd 39 3b
       3.172824e-05 -3.182315e-05 0.032644596 0.0028350966
000100 a0 e6 97 3a 29 cc 9e ba 58 d1 25 3a 3e 7a 0d ba
       0.0011589117 -0.0012115288 0.0006325445 -0.00053969386
000110 d6 15 59 3b 27 32 23 3b 63 cb e0 3a 8d 20 e2 b9
       0.0033124587 0.002490172 0.0017150458 -0.0004313033
000120 40 e1 5d bc 61 5d 28 bd c4 75 bc 3b 72 3b 17 3c
       -0.013542473 -0.041104678 0.0057513434 0.009230481
000130 d7 6b 52 bc 09 8f 9b bc d7 e1 89 bc 6e 48 4f bc
       -0.012843094 -0.018989103 -0.016831322 -0.012651546
000140 6f 59 0b bb 7f 89 68 3d 4e f7 8f bb e7 73 18 bd
       -0.0021263023 0.05677175 -0.0043934947 -0.037219908
000150 1d 84 55 3d 64 a9 14 3a bd 58 5d 3c 3b 5e 03 bd
       0.052127946 0.0005670993 0.013509926 -0.032072287
000160 c2 ae 48 bd e8 18 b0 bc 93 98 da 3b 6e 17 8f bd
       -0.048994787 -0.021496251 0.0066710203 -0.06986891
000170 61 28 cc bd 52 9c 1d b8 c8 a1 a1 23 e8 8c 11 34
       -0.09968639 -3.75773e-05 1.7524172e-17 1.3555439e-07
000180 b4 85 a3 3b fc 69 a5 bc 20 ab 0f 3c f7 7f 3c 3c
       0.004990304 -0.020192139 0.008768827 0.011505119
000190 16 00 c5 bc 6f 61 e2 ba 82 47 fb 3c ef 23 d5 3c
       -0.024047893 -0.0017271469 0.030673746 0.026018111
0001a0 85 17 41 bc 1c e1 c6 3c a8 ba 4e bb a7 e1 15 3c
       -0.011785393 0.024277262 -0.0031544361 0.009148038
0001b0 e8 10 25 3c 80 cb a2 bc 56 56 2f bc aa 53 9b 3c
       0.010074832 -0.019872427 -0.010701736 0.018960793
0001c0 cc da 6d 3c fd f2 9e bc 67 30 74 3c 67 23 9e 3a
       0.014517497 -0.019402975 0.014904118 0.0012064994
0001d0 61 f1 b2 bb 60 e2 6b 3c eb 01 00 80 73 19 1b 3c
       -0.0054609035 0.014397234 -6.88e-43 0.009466517
0001e0 fb e5 27 bd 37 5a bf bc 01 2f 18 bb 85 e7 f5 3c
       -0.04099081 -0.023358447 -0.0023221376 0.030017624
0001f0 8a bd ef 93 1b d6 12 3c 02 cd f4 bc ff 46 30 3d
       -6.0518982e-27 0.0089621795 -0.029882912 0.043036457
000200 39 d9 61 3d 5a 82 33 bd 21 d6 3f 3d 71 94 2d 3d
       0.0551388 -0.043825485 0.04683507 0.042377893
000210 0f 85 e2 3b a5 fa a1 3c 7e b1 0c 3c 76 2e a7 01
       0.0069128345 0.019772837 0.008587239 6.141278e-38
000220 05 24 61 92 6e b6 a5 a2 2d 28 6a 87 b2 01 00 00
       -7.104188e-28 -4.4916495e-18 -1.761601e-34 6.08e-43
000230 52 c7 19 85 f9 01 00 00 25 06 00 00 a1 5e d2 8c
       -7.230635e-36 7.08e-43 2.204e-42 -3.2412576e-31
000240 96 d1 c0 3d a3 f6 bc 3c dd 56 51 bb 42 a1 91 32
       0.09414975 0.023066824 -0.0031942644 1.6953553e-08
000250 b4 c1 60 b7 a3 ea 91 b9 55 1f 1e 3d 51 67 1b 3c
       -1.339654e-05 -0.00027831373 0.0386041 0.009485082
000260 24 6d 23 36 dc b1 9d bc c6 27 c4 3c 4c c5 94 3c
       2.435242e-06 -0.019249849 0.023944747 0.018160485
000270 d7 be 29 bc ee e8 36 bc 3b 20 68 3c fa 17 20 3d
       -0.010360441 -0.011163933 0.014167841 0.039085366
000280 5f 36 b7 bc 1c 3d 02 3d c5 a8 4d 3b f6 b6 9c b8
       -0.022364793 0.03179656 0.0031381112 -7.472739e-05
000290 30 61 47 bb f0 21 7e 3b d5 4f 60 ba c3 69 53 ba
       -0.0030422918 0.0038777553 -0.0008556818 -0.0008064771
0002a0 fb 85 39 3b c7 70 2f b9 da f9 3a ba ba d7 92 bb
       0.0028308618 -0.00016731313 -0.00071325677 -0.004481283
0002b0 c6 2c 1a 3d 33 1c 2f bb 6f 97 fd 3c 6b 5d d0 3c
       0.037640356 -0.002671969 0.030955998 0.02543517
0002c0 0d 1e ea 3c c6 7f 35 3d 94 43 e2 3c cf 9d da 3c
       0.028578782 0.044311307 0.027620114 0.026686577
0002d0 d9 3b b3 3b f3 ef 6b bc 5c f5 5f 3d 28 0c 20 3d
       0.005469781 -0.01440047 0.054677352 0.039074093
0002e0 9f 8f 49 3d 0a 42 bb bc 74 33 53 3d 3c 2b f4 bc
       0.049209233 -0.022858638 0.05156274 -0.029805772
0002f0 d9 60 e3 bc fd 6c 2b bd df 5e 4d bc d1 30 0d bc
       -0.027756141 -0.041851986 -0.012534826 -0.008617596
000300 82 06 43 3a 76 55 d0 3b 76 15 cb bc a8 fb 84 bb
       0.00074396294 0.006357844 -0.024790507 -0.00405832
000310 31 b8 30 b9 cf fc 06 bd 24 16 30 bc ff f4 84 33
       -0.00016853285 -0.03295594 -0.010747466 6.1912935e-08
000320 93 7f 7c bc c7 f7 6d 3d 70 8d 67 bc b9 ae bf bc
       -0.015411275 0.058097627 -0.014132842 -0.023398744
000330 65 ec a8 3d 0e b4 55 b6 71 ae 04 3d 60 7d 33 ba
       0.08248214 -3.184428e-06 0.032392923 -0.00068469904
000340 dc 61 4c b9 21 f4 1a bb 81 a4 0f 39 02 63 ac ba
       -0.00019491412 -0.0023644047 0.00013698825 -0.0013152065
000350 49 43 a3 3a 7d 8e bb 39 10 59 2d 3a d1 9c c8 ba
       0.0012455966 0.00035773581 0.00066126976 -0.0015305524
000360 8c aa 50 3b 80 4d 2b 3c f9 a7 bf 3c b6 9e 24 bc
       0.0031839935 0.010455489 0.023395525 -0.010047605
000370 55 f2 ad bc 64 fd 34 bc e2 6e db 3c b9 02 bc bc
       -0.021233717 -0.011046741 0.026786271 -0.022950517
000380 07 ad 1f bb 68 dd f5 39 c0 1e 94 bc 75 fb 47 bc
       -0.0024364607 0.00046895002 -0.018081069 -0.012205948
000390 ca 01 b5 bc ff a7 53 bd 2f e0 96 bd 6f da 8e bc
       -0.02209558 -0.051673885 -0.073669784 -0.017438142
0003a0 7d af 30 3c 99 f0 6a bd 69 af 94 bb 3b 91 56 bc
       0.010784027 -0.057358358 -0.004537512 -0.013096149
0003b0 d3 38 ca 3c 12 c5 fb b7 ab 18 0a a3 78 43 14 b3
       0.024685299 -3.00133e-05 -7.486219e-18 -3.4520298e-08
0003c0 8c 8c 81 bc f8 13 ba 3c e1 da 26 bd ed ec 00 3d
       -0.015814088 0.0227146 -0.040736083 0.03147595
0003d0 cc b1 9e 3b d8 33 a2 bb 4e eb 6e ba 4d 0e 32 bd
       0.0048429724 -0.004950028 -0.00091140426 -0.04347067
0003e0 bd e5 c8 bb 98 db ec 3c 1c 3a 97 ba 1f 5e a6 bc
       -0.0061309026 0.028913304 -0.0011537704 -0.020308552
0003f0 72 46 86 3c 6a 0b dc ba a7 88 1d 3b 66 48 ce 3a
       0.016391013 -0.001678807 0.002403775 0.0015738129

deconv1.bias f4 [16]
000000 2e c5 ca bb 7f 07 ac ba b2 b8 20 bb 42 9b 8e b9
       -0.0061880564 -0.0013124793 -0.002452415 -0.00027200027
000010 d9 97 21 bb 6d 45 b9 3b de e3 c0 bb 8d fc 87 bb
       -0.0024657159 0.005654028 -0.005886539 -0.0041499794
000020 a1 9e 40 3c 27 01 c3 3c 81 4a 45 bc de 57 d2 3a
       0.01175657 0.02380426 -0.012041689 0.0016047915
000030 a2 e7 82 3c a9 b8 62 bb 7c 09 e5 3b 24 2f 73 ac
       0.015979592 -0.003459493 0.006989656 -3.4558545e-12

batchNormalA.weight f4 [16]
000000 c2 7a a9 3e 05 ae 22 3e c0 bc 2b ba a8 4e 34 3e
       0.3310147 0.15886696 -0.0006551258 0.1760813
000010 66 7a 12 3e 4f c4 07 3e 99 a1 79 3e 33 47 10 3a
       0.14304504 0.1325848 0.24378051 0.00055037736
000020 79 73 46 3e ca bc eb 3e 84 37 a3 3e 9b ac 22 3e
       0.19379987 0.46042472 0.31878293 0.15886156
000030 58 38 16 3e 85 26 1d 3e 50 55 86 3e c9 9e 00 1c
       0.14669931 0.15346725 0.26236963 4.255687e-22

batchNormalA.bias f4 [16]
000000 ba b6 a4 bc e2 7b fd bb e9 94 d9 3d bb cf 41 bc
       -0.020106662 -0.0077357152 0.106241055 -0.011829312
000010 79 27 9a 3c 7b 93 c8 3b 09 d6 2a bc 46 c0 02 b9
       0.01881765 0.0061210967 -0.0104270065 -0.00012469394
000020 6f 6a 2f 3c 1a 45 07 3a 0c 36 91 3c 1e ce 80 3c
       0.010706528 0.0005160138 0.017725967 0.015723284
000030 04 3c 2a bd bc 63 66 bb ba e0 a1 3c bd d0 4c 3b
       -0.04156114 -0.003515466 0.019760478 0.0031252347

batchNormalA.running_mean f4 [16]
000000 45 46 96 3a 14 b9 b1 3a 04 00 00 00 c1 0e 6a 3b
       0.0011465034 0.0013559186 6e-45 0.003571436
000010 80 65 1a 3b ce 75 80 3b 4c 9e 0c 3b 04 00 00 00
       0.0023559034 0.0039202934 0.0021456657 6e-45
000020 b5 73 6c 3c 32 04 f0 3c 22 c8 0e 3b 9f 7a 4c 3b
       0.014431884 0.029298875 0.002178677 0.0031201018
000030 51 08 91 3c 5d 7a ac 3a 03 8b 49 3b 04 00 00 00
       0.01770416 0.0013159026 0.0030753023 6e-45

batchNormalA.running_var f4 [16]
000000 a4 5e 0e 37 44 9b 96 36 04 00 00 00 ec 6d 12 37
       8.485895e-06 4.4884237e-06 6e-45 8.727871e-06
000010 5a 64 cc 36 0f 7f fc 36 e8 eb 55 37 04 00 00 00
       6.091356e-06 7.524977e-06 1.27507155e-05 6e-45
000020 3e 3b e9 36 03 3b a4 37 45 ac 7d 37 f8 fb a0 36
       6.950838e-06 1.9577803e-05 1.5120085e-05 4.7977046e-06
000030 0c 8b 40 37 c1 d9 af 36 ba 2d 5a 37 04 00 00 00
       1.1476466e-05 5.2407563e-06 1.3004459e-05 6e-45

deconv2.weight f4 [16, 8, 5, 5]
000000 56 93 45 3d 10 89 f5 3c 7d 41 4c 3c 9d 54 35 3b
       0.048236214 0.029972583 0.0124667855 0.0027668842
000010 b2 3e 1c 3c 98 64 0a 3d 0d 43 17 3d 9a bb 9b ba
       0.009536432 0.03378734 0.03692918 -0.0011881471
000020 8c 74 f2 bc 20 c2 c9 ba c7 1f 65 3c e6 66 ae 3c
       -0.02959659 -0.0015392937 0.013984627 0.0212893
000030 8d 23 8c 39 e1 04 af bc f3 39 2c bc 6c 35 8e 3c
       0.00026729368 -0.021364631 -0.010511863 0.017359458
000040 bd 4e 87 3c d4 20 d7 39 04 58 b9 bc e1 ca a1 3b
       0.016517038 0.00041032454 -0.022624977 0.004937515
000050 6e fd c7 3c 36 e2 83 3c b3 67 3b 3c b9 9a 09 3b
       0.024412837 0.016099077 0.011438298 0.0020996763
000060 e6 a9 54 3c 66 38 8a 3c fe 22 80 3c ab c6 7a 3c
       0.01297996 0.016872596 0.015641686 0.015306155
000070 70 fc 10 bc ae a7 30 bc 53 b7 90 3c 38 d7 b6 3c
       -0.008849248 -0.010782165 0.01766554 0.022319421
000080 85 70 15 3d 97 3e 0b 3d ae d2 d1 3c 0e f8 b1 3c
       0.03648426 0.033995237 0.025613155 0.021724727
000090 b7 2e a0 3b 7b 15 3c bb 68 3a 5b bc 0b bb cf bb
       0.0048883813 -0.0028699327 -0.013380624 -0.006339436
0000a0 5b 2b 8a 3c ac 99 80 3b 2a e1 5e 3b 73 e4 be bc
       0.016866377 0.003924569 0.003400872 -0.023302292
0000b0 09 68 07 bb a9 06 28 3c 4b d8 3e 3b ec 48 46 bc
       -0.0020661375 0.010255494 0.002912062 -0.012102347
0000c0 5c c6 22 3c 3b b1 ca bb 13 84 a1 bb e1 9b 93 3c
       0.009934988 -0.0061856783 -0.0049290746 0.018018665
0000d0 57 a6 9d 3b 42 be 33 ba e9 88 a7 b7 a8 2c 0c 3d
       0.004811089 -0.0006856659 -1.9971705e-05 0.034222275
0000e0 b1 ab 17 3d bc 37 a6 3c 4b d7 21 3c ba 08 b3 3b
       0.037028972 0.020290248 0.00987799 0.005463687
0000f0 55 be 5c 3c b1 a6 07 3c da 95 a9 3b ff 29 4a 3c
       0.013473113 0.008279488 0.0051753344 0.012339114
000100 e9 36 82 b9 f1 7a 59 bb 9f 6b 31 3c 05 cd 70 39
       -0.00024836443 -0.003318485 0.0108288815 0.0002296456
000110 f8 43 55 bb 22 9f ef bb 0c 11 fb 3b 91 40 4a 3c
       -0.0032541733 -0.0073126713 0.0076619443 0.012344495
000120 1b dd 1b bc 9f ae 99 bb 95 e7 e1 39 02 e4 62 bc
       -0.009513165 -0.004690006 0.00043087886 -0.013848307
000130 76 a8 81 3c f4 9c 82 3c a2 63 2a bb a5 7a 71 bb
       0.015827399 0.015943982 -0.0025999327 -0.0036846783
000140 d8 80 a7 3c e5 cb ab 3c d7 f3 38 3c 1e 98 84 3b
       0.02044718 0.020971248 0.011288605 0.004046454
000150 57 75 8c bb 6b 31 1a 3c 4c 5f 8a 3c 3a 59 12 ba
       -0.004286449 0.009411196 0.016891144 -0.0005582754
000160 e5 ed db 3b fb f5 ef bb 89 c5 24 bc 0d 97 b2 3a
       0.006711709 -0.0073230243 -0.010056862 0.0013625339
000170 bb 18 70 b9 fa 3b 04 bc 96 f4 1d bc b5 14 0a bc
       -0.00022897396 -0.00807094 -0.009640833 -0.0084277885
000180 63 17 1a 3c 63 e1 fd bb 7d 77 3c bc 6b cb dc bb
       0.00940499 -0.0077478155 -0.011503098 -0.0067381165
000190 03 6a b4 3d 2d 4b a4 3c 8d 6b 8f 3c 0b c7 90 bb
       0.08809283 0.020055378 0.017507339 -0.004418259
0001a0 0c dd a3 3c 48 36 1c bc 9b 02 05 bd dc cc 9d ba
       0.020002864 -0.009534426 -0.032473188 -0.0012039202
0001b0 2b ce 23 3b 70 45 32 bd 57 fa a4 bc da 1a 63 bc
       0.0024994712 -0.043523252 -0.020138903 -0.013861382
0001c0 d1 7c 4e bb c4 0f c8 bb 44 13 04 bc 7d ac f2 3b
       -0.0031507502 -0.006105395 -0.008061234 0.007405816
0001d0 02 29 e3 bc 5c 27 f8 3b 20 5b 0e bc 6a e9 4d bb
       -0.027729515 0.0075730514 -0.008688718 -0.0031419643
0001e0 52 5b 7f bc 39 51 93 3b 05 8b 4a bb b0 5a 07 3c
       -0.015585737 0.0044957665 -0.0030905616 0.008261368
0001f0 4f b0 d5 bb ef a3 fc bb 1f 13 8c 3c d4 15 1f bc
       -0.0065212618 -0.007709972 0.017098961 -0.009709794
000200 f9 2a c9 3b a0 3e 2e 3c 39 cf 54 bc 1a 36 3c 3d
       0.006139156 0.010635048 -0.012988859 0.045950033
000210 ba df 57 bc 40 ae 38 b9 6e 94 6c bc b3 35 93 3b
       -0.013175899 -0.0001761252 -0.014439685 0.0044924854
000220 f8 30 85 3c 97 e6 15 3b da a8 6f bc 49 b2 7e 3a
       0.016258702 0.0022873038 -0.01462766 0.00097158976
000230 38 2a 3c 3c e6 8b 87 3c 37 4f e2 3a c4 a7 54 bc
       0.011484675 0.016546201 0.001726604 -0.012979452
000240 48 b1 24 bc a9 34 4c 3c 76 ba f0 bb 24 db c4 3b
       -0.010052033 0.012463727 -0.0073464466 0.006007569
000250 b2 64 e2 bb c7 b1 05 3b e6 e0 ab 3c fa 34 b7 3c
       -0.0069089765 0.0020400153 0.020981263 0.022364128
000260 09 a3 07 3d 2d 74 67 3c 58 9e 1a 3c fe 3f 6d 3c
       0.033114467 0.01412682 0.009437166 0.014480589
000270 6c b7 11 3c ca ee 91 3c e6 fb 00 bc 4d 94 d6 3b
       0.008893829 0.017814059 -0.007872557 0.0065484405
000280 7e 21 01 3c 64 90 22 bc 1d e9 04 3c 5f 04 92 3b
       0.00788152 -0.009922121 0.008112219 0.0044560875
000290 46 12 66 bc e8 83 0e bc f4 ba e7 ba 04 55 5f 3b
       -0.014042443 -0.008698441 -0.0017679618 0.0034077773
0002a0 7e 33 62 bc dd 96 36 bc 4b 59 c0 3c 90 ac 98 bc
       -0.013806222 -0.011144367 0.023480078 -0.018636972
0002b0 d0 66 f3 bb 45 49 11 3c f6 24 95 3c 16 72 b0 3b
       -0.0074280277 0.0088675665 0.0182061 0.005384694
0002c0 25 c4 8e bc 22 83 d4 3b fe 12 ad 37 9d 71 92 b9
       -0.017427513 0.006485359 2.0632051e-05 -0.00027931939
0002d0 2c 45 ab 3c 1b b6 be 35 df 4f 84 3b ce 8c 44 bd
       0.020907007 1.4209103e-06 0.0040378417 -0.047985844
0002e0 84 47 7c 3c 3d fb 8c 3c b0 08 d5 ba 06 60 1d bc
       0.01539791 0.017209643 -0.00162532 -0.009605413
0002f0 42 35 77 bc 2b 04 99 bc c6 0b 27 bc 86 a3 3b bc
       -0.015088381 -0.018678745 -0.010195678 -0.011452561
000300 99 a1 f0 ba 9d fb da ba 97 f0 51 bb 28 64 82 3c
       -0.0018358707 -0.0016707067 -0.0032034272 0.015916899
000310 76 8f 86 3c a1 a5 3e bc 48 49 8b ba 8a a8 b9 3c
       0.01642583 -0.011636169 -0.0010626698 0.022663374
000320 a9 32 1c bc 96 5a 78 bc 6e e3 c9 3c 35 3b c7 bc
       -0.009533563 -0.015158316 0.02464458 -0.024320224
000330 11 32 d4 ba da b8 1f 3d 99 72 dc 3b 92 55 a6 bc
       -0.0016189237 0.038994648 0.0067275283 -0.020304475
000340 f3 ad 18 bb 57 43 b6 bc a3 23 8b bc ea 51 28 bc
       -0.0023297041 -0.022248907 -0.016984766 -0.010273436
000350 75 6f 87 bb 52 31 86 bc 1a 7f 7e bb 45 1c 59 bb
       -0.0041331598 -0.01638094 -0.0038833083 -0.0033128422
000360 21 76 5c bd 82 b6 f5 bc a4 85 71 bd 98 a4 f8 bc
       -0.053823594 -0.029994253 -0.05896534 -0.030351922
000370 da 79 3c 3c 21 8a 96 3c 6f 87 dc b9 c6 8a 65 bd
       0.011503661 0.018376412 -0.00042062576 -0.056040548
000380 1a 04 da 3b 3c ae 10 bb e7 0b 32 bc 8b 46 ba bc
       0.006653321 -0.0022076508 -0.010867096 -0.022738716
000390 85 04 2d bc f8 ff c5 bb 7f 16 3b 3d 5a a9 b1 3c
       -0.01056016 -0.0060424767 0.04567575 0.021687198
0003a0 f3 4c ac 3c dd 88 b8 3c 21 77 cb 3c 13 12 15 3d
       0.021032786 0.022526199 0.024837079 0.03639419
0003b0 45 e0 24 bd 9d f0 bc bc 04 90 3b bd 70 f1 1f bc
       -0.040252943 -0.023063952 -0.04579164 -0.009762153
0003c0 63 21 bc bc 04 2a eb bc a2 f9 30 3b 80 f6 95 3c
       -0.022965139 -0.028706558 0.0027004262 0.018306017
0003d0 41 20 2d bc 39 16 28 3a 3f ed 99 bc a5 0b 2e bc
       -0.010566772 0.0006412003 -0.018789886 -0.010622893
0003e0 de 98 ff bc 63 f7 99 3c fe a5 23 bb 34 74 02 3c
       -0.031200822 0.018794721 -0.0024970765 0.007962275
0003f0 9a 13 f9 bb 2a 0e e0 bc 32 f6 cf bc c3 84 a5 3c
       -0.0076012136 -0.027350504 -0.02538595 0.020204907

deconv2.bias f4 [8]
000000 2c 3e 26 ba 0d 2f 91 bb 22 a5 af 3c 1b c1 bf 3c
       -0.0006341662 -0.0044306577 0.021441046 0.02340751
000010 f8 d8 a4 bb fd dc 16 bc 03 8c c8 3c 35 e1 52 bb
       -0.0050307475 -0.009207961 0.024480825 -0.003217769

batchNormalB.weight f4 [8]
000000 65 4f fb 3d 3a 40 bd 3e cd 70 98 3e 15 7b 3f 3e
       0.12271003 0.36963063 0.2977356 0.18699296
000010 e5 b8 07 3e cf 1a dd 3d 04 c4 00 3e f7 94 bd 3e
       0.13254125 0.10796129 0.12574774 0.37027714

batchNormalB.bias f4 [8]
000000 9f c6 02 bd c8 c1 3c 3d ec e9 e6 3c bc de 9f 3c
       -0.0319277 0.04608324 0.028187715 0.019515388
000010 71 38 b8 3c 2a 0a 3d 3d 54 5e 57 bd 18 6e 02 3c
       0.02248785 0.04615227 -0.052580193 0.007960819

batchNormalB.running_mean f4 [8]
000000 07 dc 2f 3b 05 8f 05 3b a7 1b b8 3c 4c 88 b1 3c
       0.0026834027 0.0020379436 0.022474123 0.021671437
000010 3e dd 01 3b 1d 77 a4 3a 50 82 86 3c d5 d9 ca 3a
       0.0019815709 0.0012547706 0.01641956 0.0015476296

batchNormalB.running_var f4 [8]
000000 3b 07 e6 37 72 af 06 38 e4 36 dd 38 44 35 e9 38
       2.7421504e-05 3.2111486e-05 0.000105483254 0.00011120227
000010 28 01 12 38 49 f7 6e 37 7a d9 08 39 35 09 9c 37
       3.481019e-05 1.4243481e-05 0.00013050987 1.8600937e-05
